Assignment 1/Q4/bias_hidden.npy (npy, 408 bytes, 1 tensors)

array f8 [35]
00000000: e3c0 7ef4 5272 d73f 1a54 93b1 4d3e e73f
00000010: c106 d6cc d7b5 d63f f817 bd5c 77a3 d9bf
00000020: c20d c54c 1e30 eebf 0495 bfd9 638f e7bf
00000030: 0666 7878 8ff0 c1bf f0b1 d4da 7374 d1bf
00000040: 8616 940f 27d0 dcbf 3101 7b0f 10a2 e43f
00000050: bd49 1866 2b71 bebf daf2 2eef 1814 f8bf
00000060: cdb7 f886 72ff e7bf a96a d8a5 4edd f8bf
00000070: 6a8f 3b39 e715 f9bf fead 8606 d363 f6bf
00000080: 2c45 21d2 815a 5bbf 2252 0fae ff33 ac3f
00000090: b492 0f45 def7 6abf 2a37 664a f16c f13f
000000a0: 40d3 1dd9 4d5c a0bf c2ad 2a0f a265 febf
000000b0: cecc bddd 851c ba3f efe4 85d4 4ea4 f0bf
000000c0: 2625 a086 d799 ef3f fc8a 127d c170 c43f
000000d0: d7e1 f084 05f7 debf 3cca 433b 6bbd f2bf
000000e0: 4ec0 ee1a 86eb d23f 68d7 69b2 3561 efbf
000000f0: 2c3b 1d84 5b4d f73f b343 4ae9 2eec f1bf
00000100: 19a9 ad24 a168 fabf 9fd7 764d c4bd dc3f
00000110: 97f4 ecf8 aad7 e43f
0.36635278583982095 0.7263554065963291 0.3548488140441855 -0.40060218864925856 -0.9433738231095321 -0.7362536671541027 -0.1401538217767639 -0.2727327000636981
-0.4502046253331645 0.6447830488541851 -0.11891432993460334 -1.5049065917111677 -0.7499325405276466 -1.5540300825438556 -1.567847465100352 -1.3993711714673505
-0.0016695277959296135 0.05508421897653572 -0.0032920209127829895 1.089097300169167 -0.03195422435138662 -1.8998127548646697 0.10199772513969949 -1.040114240806641
0.9875295285611727 0.15969103438427357 -0.48382699949754965 -1.171244842055457 0.2956252348913083 -0.9806164250028191 1.4563861046514814 -1.1201619255918842
-1.6505443032024856 0.4490824467169378 0.6513266431644692
