Assignment 1/Q4/weight_hidden.npy (npy, 219648 bytes, 1 tensors)

array f8 [784, 35]
00000000: 6c13 b5d7 eddb e2bf 569f 5b5b 22fa f63f
00000010: 909b c491 a527 f4bf 7047 1034 5905 fb3f
00000020: 8670 ba9d 54fe b93f 8168 68ab 050d f13f
00000030: e466 893d 8caa e13f a288 eb5c 9b94 c7bf
00000040: cfa8 b64f 4a3c d73f a20d 8570 9dc4 d43f
00000050: f5b9 4347 4a43 fcbf ab38 c240 17ce e3bf
00000060: 1431 d7ae 6820 ec3f 8338 d037 848a a9bf
00000070: b4b7 48fb ccc4 c13f 8ce3 1696 ae30 e4bf
00000080: cb13 b27e d105 f4bf 15ba 3563 2ad3 edbf
00000090: 7abc 264a 0b1a f6bf 3e06 e1d8 7814 fb3f
000000a0: 745b 861a 979c de3f f61b 4ada 5a9e cbbf
000000b0: 2008 1841 d737 dcbf 0137 28c4 7c5b fb3f
000000c0: d641 e68e fa60 7bbf 746d 4cd6 e70d e4bf
000000d0: 04bc bcff 139a d33f f7c7 b519 2c89 eb3f
000000e0: 0f68 fd8a 2401 d93f 9c2a 7866 ee2f e53f
000000f0: 991b 5b3e bfdb d5bf facd 632a bcfe c0bf
00000100: 1d02 b0f5 9ae7 bb3f e2b8 3b51 b843 e13f
00000110: 1447 b512 8381 f53f 771c 072f b3e5 d83f
00000120: 0688 281b 6e01 f8bf e504 9033 1cd3 fabf
00000130: 5eb1 6b3b 1f84 f13f 042a 625e aed8 dabf
00000140: 8818 2661 57cc 0140 5111 61e9 a310 f73f
00000150: 2a8d 1a91 cc54 e7bf 4a42 8642 ce8b f2bf
00000160: c4e5 b90b b0f9 a63f 48a3 8878 9004 c53f
00000170: 4e08 3ca2 a95e dabf 63c9 2cb0 0448 f1bf
00000180: 93c3 1a83 9df5 9e3f cbd9 2400 6e55 c9bf
00000190: bafe dba4 39f3 ce3f 6bf8 2b7a 9cfd dabf
000001a0: ea99 b7c0 bf0b 0740 2edf 8c77 1faa d2bf
000001b0: dc89 b607 bfa8 bcbf 7b81 30b5 6f2c f73f
000001c0: 3ea3 2adf 75ed f43f 72a8 95e3 c821 0940
000001d0: 6d10 70cd 3efc ff3f cd4e d3b3 ecdd f53f
000001e0: 4b15 bc36 dd2c dabf 6b12 74e5 a016 ffbf
000001f0: b575 db21 c3b4 c13f c563 9f3a 93a3 d1bf
00000200: 2a90 d3e9 a422 d5bf fc40 685e cf1c d83f
00000210: 77f7 a841 fca3 c2bf 6fce 863c 4bdc b2bf
00000220: b294 abf7 5bd9 d0bf 694e 1885 dd64 f0bf
00000230: fc20 27f5 5389 b9bf 7bba 80f1 8da2 f63f
00000240: 6e8f 3078 363c d63f 0e04 4fb9 6be0 d3bf
00000250: 623d 9769 fc58 e6bf ec52 4ca1 e3d0 c53f
00000260: 42db d39c c1d8 e23f 2b84 09e5 877e d33f
00000270: e32a 8a06 01cf ecbf 95f9 ac9d 0f2e f1bf
00000280: be98 bb99 b948 ef3f 7aa9 72c0 c94a eabf
00000290: 1efd 78bb d17e f6bf edee 84e6 3678 ebbf
000002a0: 49ae f5fe 4e2d eebf 05bb 53be 3b1d b63f
000002b0: 689e 1816 2f86 db3f 69e6 7897 3913 f03f
000002c0: 7e04 3c88 9518 c9bf dc63 d22e 25ff ecbf
000002d0: bfef 6104 7aa7 f4bf fa59 9616 95d0 eabf
000002e0: 4b37 f787 a288 f4bf 6fd8 35af ac52 dcbf
000002f0: ae38 eef9 c439 ec3f 85f4 0b45 8511 fc3f
00000300: 7947 2b7b 4a40 eebf 9b51 2e78 605c da3f
00000310: f638 58e9 2ae3 f1bf 4f47 880e ef78 c63f
00000320: 9b22 e38a e942 e3bf abb8 b1d6 ff37 cfbf
00000330: e975 b3b4 915f f73f 8636 3043 404d e33f
00000340: 620d f853 5af9 d93f 43a3 5c57 5fed f53f
00000350: 2aaf 5b0a c0ff ebbf 0752 9c91 70aa cebf
00000360: 27c0 b4c9 59bf d83f 7865 7ba2 cbe6 f23f
00000370: 76ba c0da 4f7c f03f 5e82 550e 84b5 db3f
00000380: 05f9 518f 09c2 e53f 386b 49cd 214e c83f
00000390: dc7f 6f7b 8089 e03f 90ca 6ea0 1095 f53f
000003a0: ebbd 349a 337f efbf 8e8d e826 f8e7 efbf
000003b0: 8d91 a51f 8c9a db3f a80e d02c c2d6 f73f
000003c0: 7ef9 1df7 a62d d13f 431b 13d5 db8a ebbf
000003d0: 8a1c e7e3 e29e f83f 9075 cf5c 8261 cebf
000003e0: 9716 f86c 7b43 be3f c780 ed4c 8770 ffbf
000003f0: 16d0 b1fe 3b74 c03f 10d4 07ed b1ea e63f
00000400: 21a8 aef7 618a a23f fd55 0880 9682 ee3f
00000410: 21eb a86e bc2f eebf b384 a35a df4e eebf
00000420: 0aa8 d6a4 2067 da3f 4380 a322 c34a f93f
00000430: b1e6 fee1 d600 e4bf 4130 7530 2b7e b53f
00000440: 2f9b 3ad3 15f9 f4bf 7f7a e70b bb05 eb3f
00000450: 121b 73b3 2632 eebf d57c 7bc0 078d cf3f
00000460: 6cba ae17 e237 c33f 2438 76b7 ee54 edbf
00000470: 5cda 7fcd 1365 eb3f 8165 51f8 823e fcbf
00000480: a920 96be 1f2a f13f cea6 b74c 06c6 f1bf
00000490: 95cf c021 883c 0240 5cbb cde5 35a3 ef3f
000004a0: b1cc 484a da96 e93f 43be fe06 f543 e8bf
000004b0: aed7 2216 58be e03f c635 dcc4 2fdb e2bf
000004c0: 71c3 7573 9cbd dfbf 9842 b7fc 532c e33f
000004d0: c035 ae1e 5186 efbf b670 f765 3943 e23f
000004e0: 0b06 5dd9 2457 f2bf eca2 9756 2004 6f3f
000004f0: f2ae 85ed e828 d93f d43b 9986 8ce4 e33f
00000500: dd5e 88be 151c e53f 8730 54ba 2ade ea3f
00000510: 8bb3 57bd 27d0 c63f 7574 44c7 2388 dabf
00000520: bb7f 97ad 4146 bdbf 5104 f1d0 a4b7 f63f
00000530: c07e 3b69 5612 dd3f c8be 762a 96c8 f03f
00000540: 0af5 f5d4 fb22 c43f 8ccf 8069 f710 fb3f
00000550: 664b 86d4 a61a cb3f a640 fb18 2961 e33f
00000560: 77e9 770c 89f1 eabf 9384 7552 6b59 ea3f
00000570: 717c 7f74 4cf0 ef3f ed11 d097 715a f03f
00000580: d845 02ef 2529 e53f adfd 4f8a 8a42 f0bf
00000590: 33f9 2ffe 3c82 e5bf 4063 7810 4b62 f0bf
000005a0: 9e33 a687 96a5 e73f 2387 d3d1 f867 e33f
000005b0: 9fa7 3868 d8b1 db3f d940 b179 22c4 de3f
000005c0: 03c4 61d7 1fd2 c33f dd2b ac1a fe7c c6bf
000005d0: 9b73 e567 f895 dabf 948a 4255 a5ec e1bf
000005e0: 2161 1c8a e61d e4bf 34f7 0a28 6b46 f13f
000005f0: 0db5 5415 80bd e03f 306e 4484 c73d f33f
00000600: 46c3 098a 9a15 0640 665f 9441 1b3c ee3f
00000610: 5747 99b9 1458 df3f 929d 0caa e23b d33f
00000620: 9a6c dec9 10d9 d6bf bedf 6413 f3d4 f73f
00000630: 08d9 363f 5f3b f13f ac3f 0a55 8943 ee3f
00000640: ef99 19f0 8e23 f63f 5165 5751 2dd2 f3bf
00000650: 7d0c cd14 6a6c edbf 3c88 fee6 4e18 e53f
00000660: 1b83 1da9 0be6 f23f 633e 7191 4d42 c33f
00000670: 756f f88b b26e f23f 68b1 e188 e487 e63f
00000680: 922e 93a0 7f5e e7bf 7d0a 68a5 ca29 e7bf
00000690: dcee 3bf7 e0b4 e53f c5e9 9228 e7b6 e13f
000006a0: 5143 8673 1c08 f3bf fb47 4bc8 5fd8 c73f
000006b0: a771 5457 39e7 e6bf 3373 3fb7 1e01 fbbf
000006c0: 8bf0 0c3c e96a d03f 914f a7ab cd22 ee3f
000006d0: 55c1 524b 0306 f2bf e047 472d 15ca d73f
000006e0: b6fe 482f 86ea e5bf 70c5 3757 9630 eb3f
000006f0: 33c4 f285 ce99 e13f 0069 73cd 06cc f33f
00000700: a503 4524 beda e03f 46b1 0c2f 9791 d5bf
00000710: fc33 ca13 fed7 fb3f b6e1 8aba cbdd e33f
00000720: d25a 859f ce27 c33f b353 eeca d3c0 8dbf
00000730: 63bb c585 a395 f1bf ce4b 7547 bd76 f13f
00000740: eae1 adb1 3f23 d43f d32b 6483 e1cb cdbf
00000750: fe2e 7dce a0c4 efbf acb8 2462 8eed d13f
00000760: 348f 31af 13ec ebbf 0936 9527 7591 d3bf
00000770: ca80 dfd1 b793 f6bf 3993 ec3d 9331 aa3f
00000780: b9aa ec5d fbf3 4e3f 96b1 22da ca0a dc3f
00000790: c5d9 3e6a ec9a f03f e156 8865 375f ecbf
000007a0: 0ffa 8d32 1fe1 c53f 9d75 cf61 817c cbbf
000007b0: a505 14d2 0668 e2bf 0b8a 058b 8c63 dabf
000007c0: c568 001e 00ae d43f 1ff6 3056 70f1 f3bf
000007d0: 48a5 28bf 2378 bdbf ef2b db54 bb81 f03f
000007e0: 7486 6a5d ea85 fcbf 0987 14b7 4028 cdbf
000007f0: 94c9 4638 2470 cf3f 2a10 766f f5ef bfbf
-0.5893468106302016 1.4360679215114565 -1.2596793836653184 1.688805774091147 0.10153702593601296 1.0656792350405626 0.5520688249482331 -0.18422262227165215
0.36305482658884797 0.3245004271340922 -1.766428259255574 -0.6189075722520746 0.8789561667304349 -0.04988492184939821 0.138818381020824 -0.6309426242288381
-1.2514204930350725 -0.9320270478909288 -1.381358422902649 1.692498061355209 0.47830751028362006 -0.2157701078287741 -0.44090825421165114 1.709835783232336
-0.006684283011410183 -0.6266974626081905 0.30627918218937134 0.8604946615362213 0.39069474766950035 0.6621009827952835 -0.3415372952408063 -0.13277389592950312
0.10900276659231918 0.5395166002834026 1.3441191416536116 0.38901977150494055 -1.5003491459724514 -1.6765405668414186 1.0947563477630733 -0.4194751664842047
2.224776038146107 1.4415625683187339 -0.7291014513070071 -1.1591322516070641 0.04487371581212643 0.16420179257809253 -0.412027748520022 -1.08008259600009
0.03023382294367456 -0.19791960722950672 0.24179764318249913 -0.42172920161090727 2.8807368331938408 -0.29163347887832713 -0.11194986284548442 1.4483487203325172
1.3079737393802158 3.1414964466139788 1.9990833306228766 1.3666808151655687 -0.4089882883566431 -1.9430245364211725 0.13832892563997992 -0.2756088325964437
-0.33023951372729476 0.3767584249444693 -0.14562943655067404 -0.07367391803455246 -0.26326655565783164 -1.0246253203412385 -0.09975170836617403 1.4146861489968205
0.3474250959136417 -0.3105725583700981 -0.6983625471420221 0.17043729186902767 0.5889595091856352 0.3045978295031683 -0.9002690437058302 -1.0737453612524395
0.9776275637239207 -0.8216294058559435 -1.4059617350720326 -0.8584246160821444 -0.9430308322602708 0.08638356587082903 0.430064937189377 1.0046935955891974
-0.19606274749824942 -0.9061456598748197 -1.2908878489679265 -0.8379617158087165 -1.2833581267509142 -0.4425460539854446 0.8820519334274388 1.754277486528083
-0.9453480153699579 0.4118882344858094 -1.117960845472735 0.1755656071623499 -0.6019180023805178 -0.2438964651404992 1.4608323153146279 0.6031800567886456
0.40584428978055176 1.3704522526333711 -0.8749695017154171 -0.23957640752691153 0.38667912195069437 1.1813465449289122 1.030349592688848 0.4329538478832883
0.6799361991141103 0.18988440059441714 0.5167848978853686 1.3488928095727353 -0.9842775356136689 -0.9970665702752954 0.43130782213690894 1.4899312735077874
0.26841138966110367 -0.8607005273450813 1.5387905981495202 -0.23735074550397117 0.11821719560983933 -1.9649727826109016 0.12854719101199014 0.7161492948058612
0.036212026104593294 0.9534409046779612 -0.9433271561932522 -0.9471279878890954 0.41254440400609893 1.5807525017808224 -0.6251024641016639 0.08395643170405355
-1.3108118296747298 0.8444495422844084 -0.9436219696879979 0.2464914026122417 0.15014291912435185 -0.9166177352178733 0.8560885442410142 -1.7652616214676018
1.072784180143609 -1.1108458515904434 2.279556525894757 0.9886731613495203 0.799664635740916 -0.7582955490706315 0.5232353622766277 -0.5892561764646238
-0.49594794536010683 0.5991611419541014 -0.9851461028317132 0.5707060805830426 -1.146275376392057 0.003786147270819709 0.39312194057013905 0.6216490391615204
0.659678337225127 0.839619983600202 0.1782273935818036 -0.4145593114824984 -0.11435327995377424 1.4198349153305296 0.45424423481561504 1.0489713343376241
0.15731761835551367 1.6916422005860765 0.21175084473778866 0.6056104171675727 -0.84198429522739 0.823415432980385 0.9980833316184442 1.0220809869944063
0.6612729709760812 -1.0162454035597464 -0.6721482243154128 -1.0239973681802468 0.7389633798026016 0.6064418886346384 0.43272981813299255 0.48072111019156477
0.15484998718923756 -0.1756894712674172 -0.41540346284983237 -0.560137430690093 -0.6286499688604047 1.0796920360730384 0.5231323639506243 1.202582852048078
2.76054866640371 0.9448372155047593 0.4897510349738829 0.3005301151883596 -0.35699863160852774 1.4894896276073122 1.0769951314264876 0.9457441960275808
1.3836812380701493 -1.2388127496145283 -0.9194841772335988 0.6592173110586894 1.181163464170999 0.15046090699842116 1.1520257442088824 0.7040884660214433
-0.730285466788205 -0.7238515120119043 0.6783299282828597 0.5535770218332848 -1.1894802582430268 0.18629071502670044 -0.7157255845700562 -1.6877734335059358
0.2565253340178592 0.9417484619720985 -1.1264679853739683 0.3717091505214949 -0.6848784373796295 0.8496810630296476 0.5500252357652528 1.2373111749098484
0.5267019947424286 -0.3370111426800303 1.7402325413743247 0.6208246844681102 0.14965231694323805 -0.01452794516607434 -1.099032900379563 1.091489104398295
0.31465141631590987 -0.2327844516333629 -0.9927524598110435 0.2801242788726863 -0.872567979979499 -0.305753029494412 -1.4110639761129726 0.05115947848233877
0.000944612252941588 0.4381587152700147 1.037823119184041 -0.8866230948503607 0.17093267410741972 -0.21473710323236342 -0.5751985648241101 -0.4123259885438137
0.3231201451286661 -1.2464450232358855 -0.11511443535768706 1.0316727938359198 -1.7826942109171826 -0.2277909177728861 0.24560978649021747 -0.12475522967548672
